backend/app/data/SimpleTTE.pth (torch, 80659 bytes, 3 tensors)

linear_1.weight f4 [128, 152]
00000000: c1a7 07bc 0fac 82bd 51ba 91bd 9703 43bd
00000010: 4d20 9bbd 3907 9c3d 022f 90bd 5a9d 093d
00000020: d4d4 2e3d bc5b 96bc 6556 533d 276d bdbc
00000030: 4221 9d3d 6390 0b3d e9a4 083d bfbb 643d
00000040: d5c9 2b3d aa5d 94bd 44f4 ba3c 4b41 94bd
00000050: be74 b0bb e47e 723d 7936 97bc 4039 44bd
00000060: 4abe e9ba efbe 94bd eee5 2abd 5d49 4fbd
00000070: 8996 403d 5d50 013c 3043 5fbd f12a 353d
00000080: a4d0 8cbc 5372 2fbd 6e03 85bc 0756 26bc
00000090: 7ae3 83bd b025 4abc 3a45 8a3d ca83 e23c
000000a0: 911e bbbc 484a 853d da49 16bd 74f2 a2bd
000000b0: fbba 2fbd e443 16bb f3dd 90bd 8168 813d
000000c0: 649e fe3c c26f 0dbd ac4f a23d 5eaf 85bc
000000d0: 1f77 94bc 8a6a 0d3d 3bbe 3bbc c7db 8c3d
000000e0: 8adf 73bd e955 20bb cdde 38bd abd7 503d
000000f0: 6abc 42bd 0c09 553d 7da3 2d3d 2874 02bd
00000100: 7ddc 863d 9ec4 863d f867 a03d ded1 9c3d
00000110: 8185 8e3d 7f0f 20bd b63f c83c 6635 903c
00000120: 9b26 243c c311 853d 8910 fcbc 20e8 86bd
00000130: 91be a53d 425e f4bc b59b 253d db94 8f3d
00000140: bf9c 51bd 2875 03bc 737a 723d 06a1 0f3c
00000150: c64f fe3c 4918 3cbd 3122 933b 85ad 05bd
00000160: c36a 993d 8cce 3d3c 40e8 f8bb 9cae 46bd
00000170: daba 7ebd bed2 a2bd 67cf 923d 3450 643d
00000180: 1d27 46bd fa68 8f3d de5a 853d ab2f 203d
00000190: e5a6 313d dc05 68bc d696 5c3d f13e 1d3d
000001a0: 4751 a53c 1304 dd3c 9621 b4bc ff40 6d3d
000001b0: 1b52 9abb d018 503d 1320 32bc b955 863c
000001c0: 541e aabc f56d 21bd 721c 443d 8bbb 273d
000001d0: 04ef 9e3d 7505 553d bf5b 75bd f436 2cbc
000001e0: fc2e 0a3d a9f4 263d c337 e1bb 2209 8d3c
000001f0: c886 8f3d 1f55 423d 0185 8cbb 2300 573d
00000200: 9149 e83c e98c ec3c a134 8abd 5202 38bd
00000210: b4ba 90bd f3b4 803d 9915 11bd 6b9e 1dbd
00000220: 2a40 cd3c 1183 91bd 5916 4ebd 5634 36bb
00000230: d513 9bbd 0aca dcbc 783a 8e3d 6720 afbc
00000240: 6e2b 643c 7a83 34bd 9299 2d3d 0329 6cbd
00000250: 829a 9c3c 0ad8 2f3d e8c7 61bd 1d19 cabc
00000260: 91d4 96bd c2c1 edbc 4490 01bd 6c45 aa3c
00000270: ea8c 30bc acf8 64bd 1439 0ebd ae43 1c3c
00000280: 3c04 6bbc d682 673d 0c1b 833d f04b 1bbd
00000290: 909b c33b 3005 423d b3e6 86bd d26e 133d
000002a0: f01f 083d 83a2 ad3c 03de a4bd 2f7f 88bd
000002b0: e23a 8ebd 92e6 133d 6671 9b3c a780 a63c
000002c0: 40c0 95bd fe85 1bbd dd00 a13d bd6d 8e3c
000002d0: 01d1 9abc 41bd a5bb 6643 9ebd ec17 4ebb
000002e0: 03f7 5a3d ecb7 653d d7d1 c63c b716 b03c
000002f0: 4a51 f6bc 1378 a0bd 8d28 6f3c 7ad6 843b
00000300: 0b2e 83bd 21f5 3cbc 183e 943d 4acb bbbb
00000310: 1ee5 263d 489b 833c 1cad 683a 3382 12bc
00000320: 7eb5 6f3d 3ff9 05bd a824 eb3c d116 773d
00000330: 5261 9abd 5f77 203c 5b7f 93bd a3a7 dabc
00000340: 9520 b9bc 920a 093d 7253 81bd f3b8 5b3d
00000350: d078 1f3d 2209 8d3b 8e1e 87bd 2c0f 98bd
00000360: e897 003d 7264 f5bc ae49 8dbd efac 343d
00000370: 0730 9f3d 3599 043d 2145 b3bc 6c17 3abd
00000380: 8e0c 8cbb 9490 7f3d 04a0 88bd b816 82bc
00000390: ab23 5abd 3671 1a3c fd00 e03c f61d 2abd
000003a0: 6c56 a4bc 1333 a03c d4c9 403d bee0 623d
000003b0: 0763 773d 7cbf 3ebc c412 d1bc df9e 95bd
000003c0: 2bce 42bd e8bc a03d da2a 7d3d 40c0 5d3d
000003d0: 7046 933d 9e5d 8f3d c8c1 85bd d901 793d
000003e0: 16d2 863c d33e 523d f5e7 4a3d 0b95 883d
000003f0: 3483 39bd 8c3a 8fbd a8be 8d3d f67b 4ebd
-0.008279742 -0.06380474 -0.07115615 -0.047610845 -0.0757452 0.07618565 -0.07040216 0.033597328
0.042683437 -0.01835429 0.051596064 -0.023123337 0.07672359 0.034073245 0.033360396 0.05584311
0.04194053 -0.072444275 0.022821553 -0.07239016 -0.0053850105 0.059203044 -0.018458592 -0.04790616
-0.00178332 -0.0726298 -0.041723184 -0.050607074 0.04701856 0.007892695 -0.054507434 0.044230405
-0.017189331 -0.042833637 -0.016236987 -0.010152346 -0.06439872 -0.012338087 0.06751485 0.027650733
-0.022841724 0.06508309 -0.036691524 -0.079564005 -0.042902928 -0.002292865 -0.070735835 0.06318761
0.031081386 -0.03453041 0.079253525 -0.016318973 -0.018123208 0.03452543 -0.011458929 0.06877857
-0.059539355 -0.002446527 -0.045134354 0.050986927 -0.047542967 0.05201058 0.042392243 -0.031849056
0.065850236 0.065804705 0.078323305 0.076572165 0.069590576 -0.03907728 0.024444442 0.017603587
0.01001897 0.064975284 -0.030769603 -0.06587243 0.08092988 -0.029830102 0.040431697 0.07010814
-0.051174875 -0.008023538 0.059198808 0.008766418 0.031043898 -0.045921598 0.00449016 -0.032636184
0.07491066 0.011584889 -0.0075960457 -0.048506364 -0.062189914 -0.07950352 0.07168465 0.05574055
-0.048377145 0.070024446 0.06511472 0.03910796 0.043372054 -0.014161553 0.053854786 0.038390104
0.020180358 0.026979482 -0.021988671 0.057923313 -0.0047094948 0.050804913 -0.010871905 0.016398298
-0.020766415 -0.039411504 0.04787869 0.04095034 0.07760432 0.052007157 -0.05990195 -0.010511149
0.033736214 0.04076067 -0.0068731024 0.017216269 0.07008129 0.04744446 -0.0042883162 0.052490365
0.028355392 0.028875785 -0.067483194 -0.044924088 -0.07066861 0.06284513 -0.035420988 -0.038481157
0.02505501 -0.07105077 -0.05031428 -0.002780219 -0.07572142 -0.026951808 0.06944746 -0.021377755
0.01392637 -0.0440707 0.042382784 -0.0576563 0.019116644 0.04293064 -0.055122286 -0.024670178
-0.073647626 -0.029023055 -0.031631723 0.020785056 -0.010775784 -0.055901214 -0.034722403 0.0095376205
-0.014344271 0.05652126 0.06401643 -0.037914217 0.005969472 0.04736823 -0.06586971 0.03599436
0.033233583 0.021195656 -0.08050158 -0.06664883 -0.06944825 0.03610856 0.018974971 0.020325018
-0.073120594 -0.03796958 0.07861493 0.017386312 -0.018898489 -0.005057961 -0.07727699 -0.0031447364
0.053458225 0.056083605 0.024269981 0.021495206 -0.030068059 -0.07835402 0.01459707 0.004053888
-0.064052664 -0.011533053 0.07238406 -0.005731021 0.040745847 0.016065255 0.0008875893 -0.008942175
0.058522694 -0.032708403 0.028704002 0.060324494 -0.075380936 0.009794085 -0.072020255 -0.026691264
-0.022598544 0.033457346 -0.06314744 0.05364318 0.038933575 0.004304067 -0.06597625 -0.07424769
0.03139487 -0.029955123 -0.06898819 0.044110235 0.07772832 0.032372672 -0.02188355 -0.045432493
-0.0042739576 0.06239374 -0.066711456 -0.015879974 -0.053256672 0.009426406 0.027344221 -0.04153248
-0.02006074 0.019555604 0.04706748 0.055390112 0.060397174 -0.011642333 -0.025521643 -0.07305693
-0.0475599 0.07848531 0.061808445 0.054138422 0.07191169 0.07000278 -0.065311015 0.060792778
0.016457599 0.051329445 0.049537618 0.06669053 -0.04529114 -0.06993589 0.069211304 -0.050411187

linear_1.bias f4 [128]
00000000: f21d 073d afce a33c 9936 8c3d b177 8dbc
00000010: 0c48 9f3c f21d 1f3c 98fd ecbc 8403 853c
00000020: 289a a63c 2083 8fbd cf97 62bd 3c3f 93bd
00000030: d6c6 9ebc 1d3b 7b3d fbca d2bd 59e5 3fbc
00000040: dfea 3dbb 0b52 043d 1985 d63d abd2 a53b
00000050: 1995 fd3c 3161 53bd dba6 2bbd 0dc1 b2bc
00000060: 415d d73d 9135 b7bd 90c7 b6bd 05f6 4bbd
00000070: c891 ab3d aa23 cdbb 5688 b73d db55 3bbd
00000080: 99a8 d83d fa3f 1f3c 591b 10bd eb9c babd
00000090: 8891 e9bc 2ae2 a03d b4c7 e23d 1fdb 773d
000000a0: 6da3 b4bc a061 383d b802 b7bc cd9c 933d
000000b0: 9123 b6bd fab3 853d d55e 75bc cbfd af3c
000000c0: 6f67 313d c49b f23b a0ac ae3b af85 9bbc
000000d0: 0645 b2bd 93f5 ef3c f693 2d3d c7a4 943b
000000e0: bf8b b5bd 8fe2 763c 14ff 0cbc 88b2 42bb
000000f0: 8e48 833d 3e62 71bd 42be 703d 7deb a63d
00000100: 60e5 403c 47b8 da3d b898 543d 97d0 553d
00000110: c284 d8bd bb94 d4bd 62f4 23bc b45c 383d
00000120: 1f9c 5e3b 07a3 013e ccaa 1bbc b30a 593d
00000130: 6120 933d 4c6d dd3d 3701 f3bc c28d f73d
00000140: 4857 053e c01a 7b3c 51a3 e5bc a5da 1bbd
00000150: 85f5 53bc b71c 703d d081 743d 3996 623d
00000160: f193 b1bd cb99 67bd 4976 d5bc 21ff de3d
00000170: 3527 0dbd daa4 13bd e664 ae3d c8fd 1e3d
00000180: 785a f7bc d6f8 32bd cd4b a43d c726 f13c
00000190: c27c 0dbd 22ed 90bd 1831 863b d072 fdbc
000001a0: a128 403d 44e7 b9bd 7810 643b 8448 303d
000001b0: 59f0 02bd 8821 503d 08c7 093e 12fa e6bc
000001c0: 2272 413d 5128 643d 9860 3bbd 33fe acbd
000001d0: 19b1 24bd 23d4 733d 691e 9e3d 89c0 96bd
000001e0: 6b69 2dbd 8806 63bd f632 ac3c c031 aa3c
000001f0: bd56 d63d 62b9 3fbd 50ad 84bd dc71 853d
0.032987542 0.019996015 0.06846351 -0.017268987 0.019443534 0.009711729 -0.028929517 0.016237028
0.02033718 -0.07007432 -0.055320557 -0.071897954 -0.019381922 0.06133567 -0.10292622 -0.011712396
-0.0028979105 0.032304805 0.10474605 0.005060514 0.030954884 -0.05160636 -0.041907173 -0.02182057
0.10515834 -0.08945764 -0.08924782 -0.04979517 0.08377415 -0.006260355 0.08961551 -0.045736175
0.105790325 0.009719843 -0.03518233 -0.09111961 -0.028511778 0.07855637 0.110732466 0.060511705
-0.022050584 0.045014977 -0.022340164 0.07207642 -0.088935025 0.065284684 -0.014976223 0.021483323
0.043311533 0.0074038226 0.005330637 -0.018984644 -0.087045714 0.029291904 0.042377435 0.0045362446
-0.08864545 0.015068664 -0.008605737 -0.0029708464 0.06410323 -0.05893158 0.058775194 0.081503846
0.011773437 0.10679679 0.051903456 0.05220088 -0.105721965 -0.103799306 -0.010006996 0.045010284
0.0033967567 0.12659846 -0.00950117 0.05298872 0.0718391 0.10811862 -0.029663665 0.12087585
0.13021576 0.015326202 -0.028031977 -0.038050313 -0.012936954 0.058621135 0.05969411 0.055319045
-0.08670796 -0.056543153 -0.02605738 0.10888506 -0.03446122 -0.036045887 0.085153386 0.038816243
-0.030194506 -0.04369434 0.0802227 0.029437436 -0.034542806 -0.070764795 0.004095208 -0.030938536
0.046913747 -0.090773135 0.0034799855 0.043037906 -0.031967495 0.050813228 0.1345483 -0.028195415
0.047227986 0.05570251 -0.045746416 -0.08446922 -0.040207956 0.05952848 0.07720644 -0.07360942
-0.042336863 -0.05542615 0.021020394 0.020775676 0.10465763 -0.046807654 -0.06478369 0.065158576

linear_2.weight f4 [1, 128]
00000000: 1228 8b3d 67bd 853d 2095 e53a e6cd c43d
00000010: 40fe 0c3e 46bb b63d 25fc dd3d 9bed 453d
00000020: eef8 0d3d 1d49 0ebb 4403 45bd f1c3 68bd
00000030: 7f63 f2bc f42f acbc a097 6f3b 2711 84bb
00000040: 8fca 663d f94e d83d 424a c63d 81ad 873d
00000050: 18e7 913d 568f 173d e9be 8ebc 4a46 72bd
00000060: 8e76 023e 2172 1ebc 3e96 473b 08a1 9fbc
00000070: b872 613d f4d2 923d 5796 d63d 5870 b6bc
00000080: f949 623d 9065 a93d fa31 093e ea38 b3bc
00000090: 7527 1ebd d15e 323d 39c8 453d 3b7c a1bc
000000a0: d4e5 b43d d27a 923d df0c 17bc a0cf e93d
000000b0: f6a0 0b3b b8d8 96bd 9386 a03d 4246 79bd
000000c0: bad2 dabc bda5 a6bd 12e9 d2ba c9c9 cc3d
000000d0: 9fd2 57bd 8058 e53d 0a95 2cbc 2ceb c03d
000000e0: d057 b93b 6f2d 8f3d e362 e03b 9509 3abc
000000f0: a59a d73d a129 b3bd 3c27 043e 3f48 953d
00000100: 24f1 df3d aa3c 503d 1774 edbc b76f c33b
00000110: b7e1 f3bc b2a1 9dbc 9fac 753c df65 9bbc
00000120: 1895 39bd c0dd a23d 58ff 4abd 9d3a de3d
00000130: ce2a db3d 9713 023e 3955 9cbd 21e9 6e3d
00000140: 7bc2 a93d 45b3 80bd 812f 5cbc cd36 a6bd
00000150: e792 f73d 2397 36bd 6cfd 993d 4c4c 8cbd
00000160: 8202 5c3b 4a93 1dbd 154a 4abc 9d76 063e
00000170: 7934 e13d 891f 12bd cc43 b13d 3234 06bd
00000180: f526 6d3b 5d0c 6ebd 2123 073e 0ac9 0b3e
00000190: 646b 53bd c03d a6bd b65b aa3d 998e 1fbd
000001a0: 56d9 9e3d 5933 8abb 0b34 7d3d 0834 d63d
000001b0: 931e 88bb 0ec4 c53d f811 8e3d bc39 943d
000001c0: fe09 fe3d 2eaf 233d fdf0 e8bb 9f44 2b3c
000001d0: ddfd fc3b 1427 b63a 9808 f73d c1dc 9abb
000001e0: f7e9 c0bc fe01 adbd 8a8b 533d d741 563d
000001f0: 6309 dc3d 2aad 68bd 8b0d 1abd 1c8b df3d
0.06794752 0.06530266 0.0017515756 0.096095845 0.13768864 0.08922438 0.108391084 0.0483223
0.034661226 -0.002171106 -0.048098817 -0.05682749 -0.029588459 -0.02101896 0.0036558881 -0.004030365
0.05634552 0.10561938 0.09682132 0.0662489 0.07124156 0.03700193 -0.017425017 -0.059149064
0.12740538 -0.009670765 0.0030454542 -0.019485965 0.055041045 0.07169142 0.10477894 -0.022270367
0.055246327 0.08271325 0.13397971 -0.021877725 -0.038611848 0.043547455 0.04828665 -0.019712558
0.08832899 0.07152332 -0.009219377 0.114165545 0.0021305657 -0.073655546 0.07838168 -0.06085802
-0.02671181 -0.08137081 -0.0016091189 0.09999425 -0.0526911 0.11198521 -0.010533581 0.094198555
0.00565622 0.06991088 0.0068477257 -0.011354824 0.10527543 -0.087481745 0.12905592 0.072891705
0.10934666 0.050839104 -0.02898602 0.005964245 -0.029770715 -0.019242141 0.014994769 -0.018969474
-0.045308203 0.07952452 -0.04955992 0.10851023 0.10701524 0.12702785 -0.076334424 0.058327798
0.08289047 -0.06284193 -0.01343906 -0.08115921 0.12088566 -0.04457773 0.075190395 -0.0685049
0.003357083 -0.038470544 -0.012346764 0.13131185 0.109963365 -0.035674606 0.08655509 -0.03276462
0.003618655 -0.05811726 0.13196994 0.13650909 -0.051616088 -0.08117247 0.08318274 -0.03895435
0.07756297 -0.004217547 0.06181721 0.10459143 -0.0041540354 0.09656535 0.06937021 0.072375745
0.124042496 0.039961986 -0.007108806 0.010453372 0.0077206925 0.0013897144 0.12062186 -0.004726023
-0.023549063 -0.084476456 0.051646747 0.052308884 0.10743978 -0.056805767 -0.03761057 0.10915205
