backend/app/data/SimpleTTE.pt (torch, 78547 bytes, 3 tensors)

weight f4 [128, 146]
0.08797017 0.08424435 0.07737603 0.06832548 -0.05404636 0.0134101175 -0.046653673 0.026603717
0.020900302 -0.025304422 0.075739324 0.032878317 0.088344686 -0.0037354804 0.02509859 0.0889198
-0.02181637 0.0813567 -0.039471738 0.03326519 -0.03380067 -0.04559519 -0.035640147 -0.025601462
0.07306664 0.052722987 0.092344575 0.060371235 -0.015235023 0.03580052 -0.066602066 0.07896682
0.0150576 -0.020941015 0.009033935 -0.04948846 -0.009736665 0.012758875 0.042528342 -0.05989939
-0.07142239 -0.05357283 0.047346205 0.059227146 0.010011732 -0.05453524 0.029882325 -0.050000917
0.07582569 0.0032456368 0.004367846 -0.006396536 -0.042209525 -0.018753722 0.029289497 -0.0307442
0.000343589 0.08978194 0.071023 0.0005720346 0.0462899 0.004179492 -0.0150581645 -0.05932494
0.022234188 0.035066154 -0.013800459 0.02966585 0.0058926404 0.0016297956 -0.037022404 -0.056431923
-0.0018562789 -0.044790927 0.0011522198 0.043289576 0.0017596631 -0.0025338521 0.028880656 -0.061441697
0.015575366 0.021853043 0.036484 0.033986952 0.04301457 0.089956656 0.023686387 0.031287145
-0.021762103 0.033536285 -0.00020569004 -0.023047926 -0.027148241 -0.054982632 0.034025457 0.020314498
-0.028556589 -0.03314973 0.048038337 0.028011113 0.0692615 0.027590668 -0.017259099 0.03436009
-0.041151542 0.058306985 0.02555134 0.08690027 0.060106292 0.026876848 0.06574369 0.03788834
0.08172193 0.07964579 -0.011565668 -0.06872806 0.044418175 -0.070511945 0.045521956 0.021313421
-0.011901554 0.03412871 0.0047728363 0.0039431266 0.006357924 0.056623716 0.01767549 0.0833196
0.014418183 -0.0061136 0.031908438 0.022611216 -0.061567374 -0.051192805 -0.03667496 -0.02039329
0.08631592 0.07923774 0.0766548 0.024326114 -0.037890777 0.00950096 0.026361806 -0.057676986
-0.054441266 0.07555913 -0.02287458 0.019301374 -0.011940832 -0.025693554 0.07517853 -0.048256453
-0.021577174 -0.06763394 -0.06963192 -0.045564067 0.0062689264 -0.051090334 0.04299588 -0.053296078
0.016351992 0.060878746 -0.07188813 -0.07435594 -0.0036274588 0.07636509 -0.041822728 0.036407314
0.03324867 -0.02943152 -0.08074324 -0.06253206 0.025146553 -0.044973973 0.033942107 0.08053743
-0.035966717 0.06292098 -0.010394373 0.045254637 -0.075982675 -0.04564024 0.07551707 0.02554168
-0.029830908 0.015361138 0.060458247 -0.05354052 0.0020461832 0.07285785 -0.049501818 -0.045970205
0.007034308 -0.01335431 -0.00034560004 0.030054202 -0.050434116 -0.058101475 0.08249407 -0.072957486
-0.05341071 0.078894444 -0.022948949 0.02280103 -0.012670519 -0.07176238 -0.070094556 0.0010457485
-0.06674346 0.046551924 0.063310504 -0.0806308 0.055666886 0.0005608034 -0.026406636 0.07339373
0.06491566 0.005837977 -0.0316439 -0.0133793885 0.011235139 0.0061789895 0.07200242 0.06370936
0.015628206 -0.07249054 -0.06817589 0.06391612 0.04606395 0.031190578 0.05325169 0.008245743
0.021783143 -0.06051385 0.07799438 -0.0688704 0.0054385886 0.044358402 -0.05618582 0.0076734754
0.027852207 0.04927063 -0.012990744 0.06703226 -0.008666146 -0.0035362393 0.042666126 -0.07358933
0.03519645 0.01084906 -0.014452249 -0.011660731 0.06485848 0.06887124 0.06360708 0.025457503
00000000: b429 b43d 4d88 ac3d 5377 9e3d 3bee 8b3d
00000010: b75f 5dbd 1cb6 5b3c ec17 3fbd 0af0 d93c
00000020: 1c37 ab3c 384b cfbc 381d 9b3d 6aab 063d
00000030: 0fee b43d f6ce 74bb 8f9b cd3c 961b b63d
00000040: 3eb8 b2bc 579e a63d 1ead 21bd 1441 083d
00000050: 9272 0abd 06c2 3abd 67fb 11bd 28ba d1bc
00000060: f6a3 953d 0ff4 573d 271f bd3d d447 773d
00000070: 519c 79bc 91a3 123d aa66 88bd 5bb9 a13d
00000080: 27b4 763c 7e8c abbc 1203 143c 69b4 4abd
00000090: 8886 1fbc 9a0a 513c 3332 2e3d 1059 75bd
000000a0: e745 92bd 2f6f 5bbd 18ee 413d 2a98 723d
000000b0: 3f08 243c 5860 5fbd c7cb f43c c3cd 4cbd
000000c0: 804a 9b3d c0b4 543b 2620 8f3b 089a d1bb
000000d0: e5e3 2cbd 68a1 99bc 87f0 ef3c 43db fbbc
000000e0: bc23 b439 98df b73d 8274 913d 98f4 153a
000000f0: 7a9a 3d3d 1ff4 883b 85b6 76bc b5fe 72bd
00000100: 7924 b63c 87a1 0f3d 521b 62bc cc05 f33c
00000110: 0d17 c13b de9e d53a cea4 17bd 2925 67bd
00000120: 624e f3ba b176 37bd 1506 973a 6950 313d
00000130: 7fa4 e63a fc0e 26bb 2097 ec3c 4aaa 7bbd
00000140: d22f 7f3c 2705 b33c 3f70 153d e735 0b3d
00000150: 0c30 303d 323b b83d f409 c23c f326 003d
00000160: 7046 b2bc 585d 093d 80ae 57b9 01cf bcbc
00000170: fd65 debc 7835 61bd 475e 0b3d 976a a63c
00000180: 82ef e9bc 03c8 07bd d9c3 443d 9077 e53c
00000190: f9d8 8d3d d305 e23c f462 8dbc 2abd 0c3d
000001a0: 858e 28bd 4ed3 6e3d 0b51 d13c c5f8 b13d
000001b0: 0432 763d d62c dc3c a1a4 863d ce30 1b3d
000001c0: d45d a73d 551d a33d ed7d 3dbc 4cc1 8cbd
000001d0: d5ef 353d 9168 90bd 3b75 3a3d 7c99 ae3c
000001e0: bcfe 42bc 8cca 0b3d 7465 9c3b 5835 813b
000001f0: 2256 d03b 45ee 673d 30cc 903c 77a3 aa3d
00000200: 3e3a 6c3c 9854 c8bb 6cb2 023d 283b b93c
00000210: 122e 7cbd 8caf 51bd 7c38 16bd d40f a7bc
00000220: 67c6 b03d 6547 a23d 31fd 9c3d 8f47 c73c
00000230: 5c33 1bbd eaa9 1b3c b7f4 d73c b43e 6cbd
00000240: cefd 5ebd bfbe 9a3d 7963 bbbc ea1d 9e3c
00000250: 7ba3 43bc 4a7b d2bc 33f7 993d 8fa8 45bd
00000260: 9dc2 b0bc aa83 8abd 2e9b 8ebd 63a1 3abd
00000270: 916b cd3b 1944 51bd 731c 303d fd4c 5abd
00000280: 9df4 853c fe5b 793d 153a 93bd ed47 98bd
00000290: a9ba 6dbb 4d65 9c3d 4f4e 2bbd d61f 153d
000002a0: c22f 083d 5f1a f1bc b65c a5bd cf10 80bd
000002b0: 2500 ce3c a136 38bd e106 0b3d cff0 a43d
000002c0: d651 13bd b7dc 803d 294d 2abc ed5c 393d
000002d0: ce9c 9bbd 43f1 3abd b2a8 9a3d c93c d13c
000002e0: f35f f4bc 48ad 7b3c 11a3 773d 4e4d 5bbd
000002f0: 4219 063b 7f36 953d 6bc2 4abd 414b 3cbd
00000300: 0d80 e63b 09cc 5abc a731 b5b9 3b34 f63c
00000310: 0194 4ebd d0fb 6dbd a7f2 a83d bc6a 95bd
00000320: 30c5 5abd 6993 a13d 6fff bbbc 3ac9 ba3c
00000330: 0298 4fbc 28f8 92bd bc8d 8fbd 7f11 893a
00000340: ccb0 88bd 3bad 3e3d f0a8 813d c321 a5bd
00000350: f602 643d e102 133a bb52 d8bc 744f 963d
00000360: 80f2 843d 804c bf3b 099d 01bd 3935 5bbc
00000370: 9713 383c 1f79 ca3b 0176 933d 0e7a 823d
00000380: b906 803c ec75 94bd cd9f 8bbd 74e6 823d
00000390: 8dad 3c3d 6283 ff3c 721e 5a3d 2719 073c
000003a0: 9072 b23c 5fdd 77bd 84bb 9f3d ed0b 8dbd
000003b0: 3036 b23b 28b1 353d 1a23 66bd c771 fb3b
000003c0: 502a e43c 00d0 493d 21d7 54bc 3648 893d
000003d0: 73fc 0dbc 40c0 67bb adc2 2e3d 01b6 96bd
000003e0: 272a 103d 41c0 313c 20c9 6cbc a70c 3fbc
000003f0: 86d4 843d 5d0c 8d3d 6e44 823d 418c d03c

bias f4 [128]
-0.04219769 0.072897956 -0.011661796 -0.03554725 0.02010323 0.06700319 -0.01462054 -0.022423051
-0.056828685 0.031989124 0.07337522 -0.026725974 0.021403167 -0.04428753 -0.0048355954 0.021261912
-0.052711315 0.01023726 -0.008314744 0.015802408 0.075451665 0.030866891 0.024282355 -0.070587836
0.023246374 -0.059406366 -0.034217216 0.036548078 0.08225349 0.07752164 -0.042948734 0.023525763
-0.088390775 -0.015147242 0.08158346 0.04052142 -0.041728925 0.06708212 0.060003027 -0.053352617
0.04223452 -0.03362128 0.033767674 -0.0111288 -0.013531798 0.002619319 0.023806045 -0.013414156
0.057788286 0.03310273 0.02446145 0.05752888 0.059875146 -0.017989662 0.031589188 -0.037655395
0.067222275 0.062049013 -0.0708623 -0.04393731 0.037696794 0.07267838 0.008613384 0.06704271
0.022321196 -0.006736715 0.0049667433 -0.0538409 0.06746505 0.08626467 0.07794402 0.027478399
-0.059948932 0.036920477 -0.02895714 -0.069207765 0.041351765 -0.0003284039 0.08583124 -0.03453525
0.00025995477 -0.03237287 -0.053521175 0.06582762 0.021195939 0.012324864 0.035417095 0.029929217
-0.01752105 -0.07105165 -0.012432946 0.048541263 -0.036591046 -0.08065317 0.03130943 0.0044267923
0.06465045 -0.059196852 -0.06739323 -0.04796009 0.012918974 -0.023522992 -0.003926433 0.038022887
0.027700724 -0.056341756 0.05094696 -0.052337334 -0.043936092 -0.06362004 -0.015789324 -0.07404125
0.04052229 0.00041130648 -0.0764807 0.070074044 0.0453568 0.007089803 -0.077705964 0.07946371
0.047578245 -0.058119934 -0.03593594 0.078297235 -0.03423158 -0.021258304 0.08939562 0.06422863
00000000: 7cd7 2cbd 864b 953d 1e11 3fbc fe99 11bd
00000010: 87af a43c f838 893d fd8a 6fbc 8cb0 b7bc
00000020: 32c5 68bd 0707 033d bf45 963d 6ef0 dabc
00000030: b255 af3c d766 35bd ea73 9ebb 762d ae3c
00000040: d2e7 57bd 2eba 273c 903a 08bc 0d74 813c
00000050: 6786 9a3d 90dc fc3c caeb c63c 5b90 90bd
00000060: 2e6f be3c 1754 73bd 5a27 0cbd 70b3 153d
00000070: 8574 a83d aac3 9e3d 03eb 2fbd 1ab9 c03c
00000080: 3906 b5bd 232c 78bc 3b15 a73d caf9 253d
00000090: f3eb 2abd 5a62 893d bcc5 753d 4688 5abd
000000a0: 1bfe 2c3d 78b6 09bd f94f 0a3d 9255 36bc
000000b0: 79b4 5dbc e1a8 2b3b e504 c33c 0cc7 5bbc
000000c0: 69b3 6c3d ba96 073d 6163 c83c 67a3 6b3d
000000d0: a43f 753d 0e5f 93bc aa63 013d 8b3c 1abd
000000e0: d5ab 893d 1b27 7e3d 4120 91bd 9cf7 33bd
000000f0: f467 1a3d 67d8 943d 271f 0d3c b04d 893d
00000100: f1da b63c a9bf dcbb 10c0 a23b 4788 5cbd
00000110: 1e2b 8a3d 88ab b03d 1da1 9f3d 611a e13c
00000120: 038d 75bd ed39 173d 8637 edbc cdbc 8dbd
00000130: 7860 293d a02d acb9 4ac8 af3d d674 0dbd
00000140: 8a4a 8839 6a99 04bd 0539 5bbd a2d0 863d
00000150: 1ba3 ad3c 3aee 493c 8411 113d 1e2e f53c
00000160: 4e88 8fbc 8783 91bd 8eb3 4bbc 34d3 463d
00000170: 7ee0 15bd 7d2d a5bd 513e 003d a00e 913b
00000180: 7567 843d 6678 72bd 7605 8abd cd71 44bd
00000190: 1baa 533c 4ab3 c0bc 4fa9 80bb e3bd 1b3d
000001a0: a1ec e23c 9dc6 66bd c2ad 503d ac5f 56bd
000001b0: 55f6 33bd 394b 82bd 9d58 81bc f0a2 97bd
000001c0: b3fa 253d 9fa4 d739 eaa1 9cbd fb82 8f3d
000001d0: 0dc8 393d 9451 e83b 4e24 9fbd dfbd a23d
000001e0: 68e1 423d 2b0f 6ebd 9031 13bd 4d5a a03d
000001f0: 6a36 0cbd e525 aebc 0d15 b73d 4d8a 833d

weight f4 [1, 128]
0.06796728 0.017567122 0.037001614 -0.05256128 0.024321977 -0.035295676 0.07851306 -0.041688386
-0.034927398 0.051555842 -0.041301887 -0.010600101 0.04439086 0.09300278 0.0680819 0.08623876
0.0904906 0.06469826 -0.011795484 -0.059269153 0.07936372 -0.0015878978 0.079191335 0.027879097
-0.08685689 -0.07068651 -0.06379798 -0.04822983 0.02093651 0.014000055 0.024172092 -0.009882119
-0.053188853 0.09605243 -0.03895669 0.071094126 -0.009677393 0.013472198 -0.02947045 -0.030639974
0.06041136 0.064346656 -0.053984143 -0.071113795 0.08409434 -0.06771611 -0.025230031 0.0008773815
0.06072047 0.016605513 0.09349775 0.014297025 -0.01144643 -0.014466937 0.06462062 0.0514234
-0.04876801 -0.04327511 0.057351872 0.03847883 0.08484476 0.045377992 0.09573302 -0.055238124
0.0069186157 -0.08186228 0.024949007 -0.01972478 -0.0017891441 0.038720515 0.042428255 0.093953654
-0.08087729 0.007969429 0.05446503 0.06679414 0.097775415 -0.078155965 0.05673955 -0.084413365
-0.057879835 0.025138434 -0.052681495 0.044390157 -0.012688624 0.09512363 0.02723946 0.046785753
-0.019015007 0.039683986 -0.07061439 0.057100397 -0.027706021 -0.025716227 -0.01809147 -0.06722007
0.07224687 0.0682343 0.05216391 0.03533014 0.09751998 0.06331517 -0.053406134 -0.022041224
-0.014885763 -0.008682767 0.08590712 -0.075295806 -0.0029493666 0.029337578 -0.014065393 -0.048815172
0.022276562 0.0016575828 0.052145377 0.07148206 -0.046627123 -0.026686236 -0.021630663 0.041541293
-0.02773408 0.017534213 -0.020785425 -0.0057338993 -0.081071645 0.093682535 0.039446544 0.05040266
00000000: 6e32 8b3d ede8 8f3c 018f 173d 7f4a 57bd
00000010: e23e c73c 3392 10bd 75cb a03d 71c1 2abd
00000020: 0810 0fbd 382c 533d 2b2c 29bd 0cac 2dbc
00000030: 31d3 353d 3e78 be3d 866e 8b3d f29d b03d
00000040: 2353 b93d 8580 843d d941 41bc 36c4 72bd
00000050: 7289 a23d 0221 d0ba 112f a23d b462 e43c
00000060: 06e2 b1bd 17c4 90bd 84a8 82bd a48c 45bd
00000070: 0b83 ab3c 7d60 653c 8d04 c63c 9ce8 21bc
00000080: 8edc 59bd 23b7 c43d 0d91 1fbd cc99 913d
00000090: ee8d 1ebc 7eba 5c3c 036c f1bc af00 fbbc
000000a0: e771 773d 2ec8 833d 7a1e 5dbd 1ca4 91bd
000000b0: a739 ac3d beae 8abd 36af cebc 1300 663a
000000c0: 07b6 783d 4908 883c c07b bf3d 123e 6a3c
000000d0: cf89 3bbc bb06 6dbc d157 843d 58a1 523d
000000e0: f7c0 47bd 3e41 31bd cce9 6a3d fa9b 1d3d
000000f0: 17c3 ad3d 46de 393d ac0f c43d 5f41 62bd
00000100: 8eb5 e23b 69a7 a7bd dc61 cc3c dd95 a1bc
00000110: b781 eaba 6799 1e3d 40c9 2d3d c66a c03d
00000120: fea2 a5bd 3592 023c b916 5f3d 5ecb 883d
00000130: 7a3e c83d 3c10 a0bd bb67 683d eae0 acbd
00000140: 6813 6dbd 1eef cd3c 8dc8 57bd 74d2 353d
00000150: f2e3 4fbc 2dd0 c23d 4a25 df3c 6ba2 3f3d
00000160: 5cc5 9bbc ad8b 223d 479e 90bd 1be2 693d
00000170: bdf7 e2bc d6aa d2bc 9034 94bc adaa 89bd
00000180: 2bf6 933d 6dbe 8b3d d3a9 553d 56b6 103d
00000190: 8eb8 c73d 62ab 813d 64c0 5abd cc8f b4bc
000001a0: 6ae3 73bc 2a42 0ebc 12f0 af3d b034 9abd
000001b0: 294a 41bb 5c55 f03c 8972 66bc 6bf2 47bd
000001c0: 567d b63c 4043 d93a 6496 553d 3065 923d
000001d0: 15fc 3ebd 189d dabc ca32 b1bc 3427 2a3d
000001e0: 9532 e3bc e9a3 8f3c 3246 aabc 6fe3 bbbb
000001f0: e408 a6bd a1dc bf3d b392 213d 0573 4e3d
